…
      "outputs": [
        {
          "output_type": "stream",
          "name": "stdout",
          "text": [
            "Model: \"model\"\n",
            "_________________________________________________________________\n",
            "Layer (type)                 Output Shape              Param #   \n",
            "=================================================================\n",
            "input (InputLayer)           [(None, 256, 64, 1)]      0         \n",
            "_________________________________________________________________\n",
            "conv1 (Conv2D)               (None, 256, 64, 32)       320       \n",
            "_________________________________________________________________\n",
            "batch_normalization (BatchNo (None, 256, 64, 32)       128       \n",
            "_________________________________________________________________\n",
            "activation (Activation)      (None, 256, 64, 32)       0         \n",
            "_________________________________________________________________\n",
            "max1 (MaxPooling2D)          (None, 128, 32, 32)       0         \n",
            "_________________________________________________________________\n",
            "conv2 (Conv2D)               (None, 128, 32, 64)       18496     \n",
            "_________________________________________________________________\n",
            "batch_normalization_1 (Batch (None, 128, 32, 64)       256       \n",
            "_________________________________________________________________\n",
            "activation_1 (Activation)    (None, 128, 32, 64)       0         \n",
            "_________________________________________________________________\n",
            "max2 (MaxPooling2D)          (None, 64, 16, 64)        0         \n",
            "_________________________________________________________________\n",
            "dropout (Dropout)            (None, 64, 16, 64)        0         \n",
            "_________________________________________________________________\n",
            "conv3 (Conv2D)               (None, 64, 16, 128)       73856     \n",
            "_________________________________________________________________\n",
            "batch_normalization_2 (Batch (None, 64, 16, 128)       512       \n",
            "_________________________________________________________________\n",
            "activation_2 (Activation)    (None, 64, 16, 128)       0         \n",
            "_________________________________________________________________\n",
            "max3 (MaxPooling2D)          (None, 64, 8, 128)        0         \n",
            "_________________________________________________________________\n",
            "dropout_1 (Dropout)          (None, 64, 8, 128)        0         \n",
            "_________________________________________________________________\n",
            "reshape (Reshape)            (None, 64, 1024)          0         \n",
            "_________________________________________________________________\n",
            "dense1 (Dense)               (None, 64, 64)            65600     \n",
            "_________________________________________________________________\n",
            "lstm1 (Bidirectional)        (None, 64, 512)           657408    \n",
            "_________________________________________________________________\n",
            "lstm2 (Bidirectional)        (None, 64, 512)           1574912   \n",
            "_________________________________________________________________\n",
            "dense2 (Dense)               (None, 64, 30)            15390     \n",
            "_________________________________________________________________\n",
            "softmax (Activation)         (None, 64, 30)            0         \n",
            "=================================================================\n",
            "Total params: 2,406,878\n",
            "Trainable params: 2,406,430\n",
            "Non-trainable params: 448\n",
            "_________________________________________________________________\n"
          ]
        }
      ]
    },
    {
      "cell_type": "markdown",
      "metadata": {
…
